checkpoints/checkpoint_iter_0500_20250712_162910.pt (torch, 395690 bytes, 14 tensors)

shared_feature_extraction.conv1.weight f4 [32, 3, 3, 3]
00000000: 40ec bd3d 984d cf3c 35fc c4bd d084 8abd
00000010: 9f75 05bd aae8 e63d a68c 6d3d c2b0 ae3d
00000020: 1d99 f2bd 45e0 13bd abbe e3bd 3fda e1bb
00000030: 94c6 64bd c0de 893d f8f7 3ebb f328 aebd
00000040: 985b d23d 2d50 d13c d654 b63d d65b 2bbd
00000050: da4e 44bb 41bf fc3d cd50 9abd d751 9fbc
00000060: 970e fbbd 99ad 2d3d 8433 06be ab9e bebd
00000070: 86ef 123d 532f 703c 6841 233b bd9c 9a3d
00000080: 577e 233c c610 f63c 449d fd3d f651 da3d
00000090: 22e3 db3b 644e 1f3d f68b d0bd 031b 2cbd
000000a0: 8d90 083e d176 cdbd e74e 843b 6672 763d
000000b0: 0767 073c fbc1 2a3d fe4c ab3d 2b94 3fbc
000000c0: 14a0 593d fec0 55bc dc22 33bd 781b 18bd
000000d0: 4af3 6f3c cfb4 793d 3b2d b1bd b75d ccbd
000000e0: 361b 2fbb c8fb 443d 8e91 bfbd 9e0a ebbd
000000f0: 4b4a f1bd 58d5 e83c a25f c6bd 2a48 0d3d
00000100: e280 833c e1d5 12bd 6770 1cbc 62e5 c63c
00000110: 6882 99bd 719d b23d 3b24 2abd 3f9b f23c
00000120: b4c7 dd3d 34e3 ec3c e930 41bd 67e8 af3d
00000130: 571e 843d 6142 85bd 821e e03d f9e9 bd3d
00000140: 7701 dabb 2ca7 35bd 3799 833d 994d 3c3d
00000150: f31e 8ebd 479b 15bd b5fb a83d 014f 96bd
00000160: f387 11bd f909 d6bd dca6 bf3d 8bd3 febd
00000170: 5316 80bd c95b e2bd b1ba eebd e330 de3d
00000180: 59ef 433d a6aa ca3c ef8e 92bc 930d 93bd
00000190: 56a2 f23d 0fad 903d c174 c43d 8b1a e2bc
000001a0: f833 c33d 0933 6dbd 52c7 f3b9 0caa da3d
000001b0: b232 d03d 7845 de3d 76ae e0bd 7a74 3f3d
000001c0: 25d4 483d c540 6cbd 07df d2bd 9671 0abe
000001d0: 8ec8 b2bd 5c0c 75bd ddef 673d bba0 ea3d
000001e0: 02f0 a9bd c0ee 9fbd 360e 0e3d cf20 29bd
000001f0: 1e6d d93d 4869 0fbc 171b 943d 4e62 7bbd
00000200: 8dd7 c6bd df6c 973d 24d0 74bd f62c b23d
00000210: d85d cbbd f178 2e3d 19a6 08be b8e4 e73c
00000220: 3fa2 eabd 7965 dcbd 11e5 dcbd 6661 a03d
00000230: 3450 a4bc 3977 a0bc 89d6 f4bd 2198 aebd
00000240: 7d01 92bd 3a24 cebc 934b 2cbd 1d38 08be
00000250: 965a 02bd 84a2 b0bd bbd1 08be b43f b1bd
00000260: f561 053e 64ca ff3c 0d04 2cbd 9117 33bd
00000270: a744 0bbe c386 ff3b ac37 4eb9 5952 a9bd
00000280: c955 f43c eb2e 01be 5196 a73d 4900 3fbc
00000290: 1124 f33d bb8c d5bd 971f b53d 3be6 97bd
000002a0: a6a5 78bd 686e 3e3d 6f9e 2fbd 3d91 72bc
000002b0: cb59 063e a5d5 9fbb 1fc9 f33d 6a6f 2dbd
000002c0: 97d5 3d3d 8c97 963d e2c8 b7bd 5278 28bd
000002d0: 33c6 8bbd 961c 993c 002d ce3d 94d0 1d3b
000002e0: e94a 9e3d ce2d 473d 046b 413d fe61 8f3d
000002f0: a8b1 913d d0da cb3d d207 17bc 0c4e e4bd
00000300: e191 e1bd feb7 5ebd 04fb 703d 174e 6bbd
00000310: 8dd8 053d 40a0 013e b180 c4bc e3df a63d
00000320: e153 fabd 6fff 853c cf1d d53d 301d 7dbd
00000330: 5790 02be d988 f13d ad15 e83d bf53 9d3d
00000340: 731e bc3d d660 b2bd 07f3 013e 64ad c1bd
00000350: 5e18 b33d 0612 a93d 3241 5fbd efa2 d73c
00000360: 61fe 47bd 572b 243d 26a3 0a3e 27fa 4d3d
00000370: d011 89bd 562d 0bbe c1a7 d6bd e8c1 a0bd
00000380: 5e83 973d 0b8f 13bd 2b02 b4bd fa15 06be
00000390: 8c28 463d 4bd5 9b3d 529c ca3d 6d21 acbd
000003a0: 03c6 823c 2792 083d 411e d63d 678d ef3c
000003b0: 5389 80bd 936b 4a3d d1d7 cebd 0ce4 c93d
000003c0: f79d a43d f2aa 9fbd 0152 e8bd 26ce da3d
000003d0: 857e 4cbd 0bee e93d 9cea 183d 5c5c 983d
000003e0: 694f dbbd 23e9 9cbd d7fd 4e3d b011 af3d
000003f0: a967 093e 5742 173b e21a 40bd c19e f03d
0.09273577 0.025305554 -0.09618417 -0.06763613 -0.032582875 0.11274846 0.05799546 0.085298076
-0.1184561 -0.036102552 -0.111203514 -0.006892472 -0.05585344 0.06731939 -0.00291395 -0.08503904
0.10271376 0.025550926 0.089029 -0.04183563 -0.0029954226 0.12341166 -0.07534943 -0.019448204
-0.12258642 0.042401884 -0.13105589 -0.09307607 0.03587296 0.0146597205 0.0024910811 0.07549427
0.009978852 0.030037295 0.12383512 0.10660164 0.006710426 0.03889312 -0.101829454 -0.042017948
0.13336392 -0.10032428 0.004037726 0.060167693 0.00826431 0.0416889 0.083642945 -0.011693041
0.053131178 -0.013046501 -0.043734416 -0.03713557 0.014645407 0.060963448 -0.08651205 -0.09978812
-0.00267191 0.04809168 -0.09353934 -0.114766344 -0.117817484 0.028422043 -0.09686209 0.03449265
0.016052667 -0.035848502 -0.009548283 0.0242793 -0.07495576 0.08721436 -0.04153846 0.029615043
0.10829106 0.028916933 -0.047165785 0.08589249 0.06451099 -0.065068014 0.10943319 0.09273142
-0.0066530067 -0.04434888 0.06425708 0.04597244 -0.06939497 -0.036525037 0.08251134 -0.073392875
-0.035530042 -0.10451121 0.09357998 -0.12442692 -0.06254258 -0.11052663 -0.11656702 0.10849168
0.04783568 0.024739575 -0.017890422 -0.071803235 0.118473694 0.07064258 0.095925815 -0.027600547
0.095313966 -0.05791 -0.00046497077 0.10676965 0.10165919 0.10853094 -0.10970776 0.04674194
0.04903044 -0.057678957 -0.10296445 -0.13519892 -0.08729659 -0.05982624 0.056625236 0.11456438
-0.08297731 -0.0780921 0.03468152 -0.041291054 0.106165156 -0.008753128 0.072317295 -0.061373048
-0.09709082 0.073938124 -0.05976881 0.08699982 -0.09930009 0.042595807 -0.13344611 0.028307304
-0.11456727 -0.10761542 -0.107858784 0.07831077 -0.020057775 -0.0195881 -0.11954982 -0.0852511
-0.0712919 -0.025163759 -0.04206426 -0.13302656 -0.03182467 -0.086247474 -0.13361256 -0.086547285
0.13025649 0.031224437 -0.04199605 -0.043723647 -0.13600408 0.0077980473 -0.0001966643 -0.0826766
0.029826062 -0.12615554 0.081829675 -0.011657783 0.118721135 -0.10427233 0.08843916 -0.0741696
-0.06070485 0.04649201 -0.042875703 -0.014805135 0.13120191 -0.0048777633 0.11903595 -0.04234258
0.046346273 0.07353124 -0.08973862 -0.04113037 -0.06824913 0.018690389 0.10067177 0.002408062
0.07729132 0.048627667 0.0472212 0.070011124 0.07113963 0.099538445 -0.009218173 -0.11147699
-0.11014152 -0.054374687 0.058833137 -0.05744752 0.032677222 0.12658787 -0.023987146 0.08148172
-0.1222303 0.016357152 0.10406076 -0.061795413 -0.12750374 0.1179368 0.11332259 0.07681989
0.09185495 -0.08709876 0.12690364 -0.094569 0.08744882 0.08255391 -0.054505534 0.02632281
-0.04882658 0.040080395 0.13538799 0.050287392 -0.066928506 -0.13591513 -0.10481215 -0.07849485
0.07398103 -0.03602509 -0.08789476 -0.13094321 0.048378512 0.07609042 0.09893097 -0.08404813
0.01596356 0.033342507 0.10454989 0.02924223 -0.062761925 0.049418997 -0.100997575 0.098579496
0.08037942 -0.07796277 -0.11343766 0.10683851 -0.049925346 0.11422356 0.037333116 0.07439491
-0.10708506 -0.07661655 0.05053505 0.085482955 0.1341845 0.0023080313 -0.046900637 0.1174903

shared_feature_extraction.conv1.bias f4 [32]
00000000: 0000 0000 0000 0000 0000 0000 0000 0000
00000010: 0000 0000 0000 0000 0000 0000 0000 0000
00000020: 0000 0000 0000 0000 0000 0000 0000 0000
00000030: 0000 0000 0000 0000 0000 0000 0000 0000
00000040: 0000 0000 0000 0000 0000 0000 0000 0000
00000050: 0000 0000 0000 0000 0000 0000 0000 0000
00000060: 0000 0000 0000 0000 0000 0000 0000 0000
00000070: 0000 0000 0000 0000 0000 0000 0000 0000
0.0 0.0 0.0 0.0 0.0 0.0 0.0 0.0
0.0 0.0 0.0 0.0 0.0 0.0 0.0 0.0
0.0 0.0 0.0 0.0 0.0 0.0 0.0 0.0
0.0 0.0 0.0 0.0 0.0 0.0 0.0 0.0

shared_feature_extraction.conv2.weight f4 [64, 32, 3, 3]
00000000: 50f4 6b3d d4af 883d d6cf 7b3d 0b99 433d
00000010: 56cf c33b 3633 fb3c 5d60 51bd cfa6 8bbd
00000020: c049 eb3c f885 0dbd 8b29 bebb 1bef 513d
00000030: 561c a0bb 7034 45bd c5b5 7abd e6a7 5fbc
00000040: ebc4 913c ded3 283d c27f 17bd 8237 9f3d
00000050: b661 82bb ee65 9cbd ebe4 ae3c 8347 f8bc
00000060: 2e79 7d3d ab67 9c3a 60ef 8bbb 30bf 253d
00000070: 5adf 7abd 1bf3 bb3c f02b 053d 0efa 6f3d
00000080: 285a aabc b086 d33c 76a4 a3bc 8b77 19bd
00000090: 597a aabd eb84 7a3d db7e 7fbc 08ee 173d
000000a0: 6ce9 a5bd 8014 a83b 2605 1cbc 2be2 a13b
000000b0: 8cd3 27bd c5ea 69bd 56a2 35bd b1ba 47bd
000000c0: e482 73bd 8007 1b3c ff0c 8d3d 50d7 63bc
000000d0: f8a6 d1bc 007b 9a3a c372 84bd 2608 54bc
000000e0: c820 64bd 18fc 8bbd 2018 02bc 8a91 a23d
000000f0: befd 82bc 56c9 2f3c 4b71 09bd 78b2 3d3d
00000100: 7b97 7d3d 68b9 38bd ceb3 a3bd ee7c 8abd
00000110: b83b 08bd 27a5 a73d ab49 a53b 00fe e73a
00000120: 333d 7f3d 008c 233c 0618 803c 5bc6 a3bd
00000130: 4379 a3bd 56a6 a03d fe42 883d 8379 043d
00000140: 831d 93bd 703a a7bc f08a 913c b51b 31bd
00000150: 1b2a 68bc 5631 933a 480d 043d b03e af3c
00000160: 6bf7 593c d8e9 2b3d a0e0 00bd 6f26 933d
00000170: f370 5b3d ebd9 eebc 88a8 7f3d a6e7 bd3c
00000180: fb52 2a3d 4210 7fbd fd74 a1bd a36d a73d
00000190: 7072 bf3c 6f7f 9cbd a00d 38bc 4383 993d
000001a0: 20b5 9fbd b14f a0bd f61f 44bc 80ee 4fbb
000001b0: 40b8 a93c ea29 56bd 9ba5 513d 58d6 863d
000001c0: 56f5 2b39 1b8a 80bd e467 a33d 14b4 a03d
000001d0: ceb5 953d 5d73 91bd abbf 8bbc 0108 8bbd
000001e0: cb54 2abc 0e19 c6bc f4f9 a63d 23a1 9c3d
000001f0: 86b0 b9bc 3b79 263d 43b8 a0bc 7b6c 463d
00000200: 8ae2 a53d b0a2 0bbd 568e 793d 860f b03c
00000210: 34fa 54bd 6ec9 efbc 9028 33bc 2376 003d
00000220: 8507 54bd e85e 2ebd 96bf 5d3d eb0f 88bd
00000230: 4878 3c3d cc7f 84bd 806a c5bb 94e9 77bd
00000240: 0e02 243d 30b7 fe3c 80c9 c83c b3e2 0e3d
00000250: d099 4a3d dbbe e23c 97d4 05bd 34bc 55bd
00000260: 625e 6cbd 566a 3d3c 33a3 263d 0e07 133d
00000270: 0a05 3ebd 6c94 983d 30cb 5b3d 1c8e a13d
00000280: 7976 60bd 5b73 3c3d 227b 8d3d 4354 6c3d
00000290: d397 2ebd 76b7 7f3d 5b89 46bd 2b42 3dbb
000002a0: 1bbc 50bd 3816 8cbd e010 c5bc 8e04 a0bd
000002b0: b0ef a53d 62d5 13bd 0611 ca3c 52b5 11bd
000002c0: 7089 45bd 561d 0639 235f a33d ee7b 8d3d
000002d0: 03d3 01bd b048 d43c 0ac5 a13d 43dd 1c3d
000002e0: 6661 a03d 8947 85bd e641 9e3c adff 84bd
000002f0: 2ed3 78bd abd0 14bb 2fbb 9ebd 3b0f 70bc
00000300: 130e 62bd 4bde 9b3d 22db 05bd 2af6 843d
00000310: 6033 973d 3712 803d b626 46bc 6a1c 87bd
00000320: 0068 0d39 abd9 c93a 09ce 43bd 2de1 9bbd
00000330: e8eb 6fbd e63d bd3c bb02 32bd a6c1 393d
00000340: ef76 5dbd 9651 2bbb 56bf 6abd ee5e 063d
00000350: 0889 d9bc 9bd3 0f3d a04e aa3d 4459 38bd
00000360: 833f b1bc 4b94 0c3d 4201 823d 2bd8 eb3b
00000370: 164a 183c da35 05bd 5019 8e3c a0c6 c53c
00000380: 8443 a1bd f80c 83bd ce97 88bd 16fe 59bc
00000390: 3302 6b3d e1f9 80bd a46f 94bd abf0 f93c
000003a0: 5335 563d 9c3c 3cbd 9007 43bc f095 903c
000003b0: 89db 9dbd efb0 963d 5eac 213d eb35 563d
000003c0: 50f1 f43c 80e7 2bbb d043 77bd 30d7 3abc
000003d0: d670 4c3d d3aa 653d a004 db3c c667 a93c
000003e0: 52b9 20bd f41c a53d b886 3abd 2eea 843d
000003f0: df8b 993d 0322 84bc 33fa 9f3d 561f 013d
0.05760604 0.066741616 0.061477505 0.047753375 0.005975644 0.030664068 -0.05111729 -0.068189256
0.02872169 -0.03455159 -0.005803292 0.05125342 -0.0048861904 -0.04814571 -0.061208505 -0.01365087
0.017794093 0.041217677 -0.036987074 0.07774259 -0.003978933 -0.07636629 0.021349391 -0.030307537
0.061883144 0.0011932751 -0.004270479 0.040465534 -0.06124816 0.02294307 0.032512605 0.05858808
-0.020794943 0.02582106 -0.019975882 -0.03746752 -0.08324117 0.061161917 -0.01559421 0.03709224
-0.08101162 0.005129397 -0.009522712 0.0049402914 -0.04097323 -0.05710866 -0.04434427 -0.048762027
-0.059451 0.009462237 0.068872444 -0.013906315 -0.025592312 0.0011785924 -0.064672016 -0.012941396
-0.055695325 -0.068351924 -0.007940322 0.079379156 -0.015990134 0.010729155 -0.03355531 0.04631278
0.06191204 -0.045098692 -0.079932794 -0.0676211 -0.033260077 0.08185797 0.0050441823 0.0017699599
0.062314223 0.009982109 0.015636455 -0.07996818 -0.07982113 0.07844226 0.06653403 0.032342445
-0.07183363 -0.020413607 0.017766446 -0.043239314 -0.014170195 0.0011229913 0.03223923 0.021392196
0.013303618 0.041971058 -0.03146422 0.07185065 0.053574514 -0.029156646 0.062416583 0.023181748
0.041583043 -0.062271364 -0.07883642 0.081752084 0.023369998 -0.076414935 -0.011233717 0.07495739
-0.07798219 -0.078277 -0.011970511 -0.003172785 0.02071774 -0.052286066 0.051183324 0.065838516
0.00016399226 -0.062763415 0.079788 0.07846847 0.07310067 -0.07102082 -0.017059168 -0.06788636
-0.010396193 -0.024181869 0.081531435 0.07647922 -0.02266718 0.040642958 -0.019619113 0.0484433
0.080998495 -0.034090698 0.060926758 0.021491777 -0.051996425 -0.029270854 -0.010934964 0.031362664
-0.051764984 -0.04257098 0.05413779 -0.06643661 0.046013147 -0.06469688 -0.0060246587 -0.06052549
0.040041022 0.03109321 0.024510145 0.034884166 0.049463093 0.027678898 -0.032673445 -0.052181438
-0.057707198 0.011560997 0.040682983 0.0358954 -0.046391524 0.07450184 0.05366057 0.07888433
-0.054800484 0.04600845 0.06908251 0.057697546 -0.04262526 0.06243082 -0.048470836 -0.002887855
-0.05096064 -0.068401754 -0.024055898 -0.07813369 0.081023574 -0.03609217 0.02466632 -0.03557331
-0.048226774 0.00012790164 0.0797713 0.06908403 -0.031695377 0.025913566 0.0789891 0.03829695
0.07831077 -0.06507785 0.019318532 -0.06494079 -0.06074827 -0.0022707384 -0.07750546 -0.014652069
-0.055189203 0.076107584 -0.032679684 0.064922646 0.07382846 0.06253474 -0.01209419 -0.065972164
0.00013485551 0.0015399953 -0.047803912 -0.07611308 -0.058574587 0.023100805 -0.043459635 0.045350693
-0.054068502 -0.0026141158 -0.05731138 0.032805376 -0.0265546 0.035113912 0.08315778 -0.045007005
-0.02163673 0.03432111 0.06347896 0.0071974 0.009295007 -0.03252206 0.017346054 0.024142563
-0.07874206 -0.06398958 -0.066695794 -0.013305208 0.057375144 -0.062976606 -0.07247856 0.030510267
0.052296948 -0.04595624 -0.0119036585 0.01764962 -0.07707889 0.07357966 0.039471023 0.052297514
0.029900223 -0.0026230514 -0.060367405 -0.011403844 0.049912296 0.056071114 0.026735604 0.020679366
-0.039239235 0.08062163 -0.045538634 0.06489979 0.074973814 -0.0161295 0.078113936 0.031524025

shared_feature_extraction.conv2.bias f4 [64]
00000000: 0000 0000 0000 0000 0000 0000 0000 0000
00000010: 0000 0000 0000 0000 0000 0000 0000 0000
00000020: 0000 0000 0000 0000 0000 0000 0000 0000
00000030: 0000 0000 0000 0000 0000 0000 0000 0000
00000040: 0000 0000 0000 0000 0000 0000 0000 0000
00000050: 0000 0000 0000 0000 0000 0000 0000 0000
00000060: 0000 0000 0000 0000 0000 0000 0000 0000
00000070: 0000 0000 0000 0000 0000 0000 0000 0000
00000080: 0000 0000 0000 0000 0000 0000 0000 0000
00000090: 0000 0000 0000 0000 0000 0000 0000 0000
000000a0: 0000 0000 0000 0000 0000 0000 0000 0000
000000b0: 0000 0000 0000 0000 0000 0000 0000 0000
000000c0: 0000 0000 0000 0000 0000 0000 0000 0000
000000d0: 0000 0000 0000 0000 0000 0000 0000 0000
000000e0: 0000 0000 0000 0000 0000 0000 0000 0000
000000f0: 0000 0000 0000 0000 0000 0000 0000 0000
0.0 0.0 0.0 0.0 0.0 0.0 0.0 0.0
0.0 0.0 0.0 0.0 0.0 0.0 0.0 0.0
0.0 0.0 0.0 0.0 0.0 0.0 0.0 0.0
0.0 0.0 0.0 0.0 0.0 0.0 0.0 0.0
0.0 0.0 0.0 0.0 0.0 0.0 0.0 0.0
0.0 0.0 0.0 0.0 0.0 0.0 0.0 0.0
0.0 0.0 0.0 0.0 0.0 0.0 0.0 0.0
0.0 0.0 0.0 0.0 0.0 0.0 0.0 0.0

shared_feature_extraction.conv3.weight f4 [128, 64, 3, 3]
00000000: fc19 70bd 57f0 913b 2830 bfbc a1dc 6dbd
00000010: e5c7 61bc 3ae5 aabc 40b9 f53c ca0c 81bc
00000020: 99c6 1abc 80f4 2f3d 2b6d a1bc 64b1 bdbc
00000030: 0588 153c 6dd4 993a 2bd1 e43c af88 0ebc
00000040: 2fdb ff3b 94e2 ffbb 96fa 22bd 9fb0 e2bc
00000050: 6957 173c 197b d13b bf7b 443d 3d79 c23c
00000060: 1703 093b d2ad c43c f91f 263d efaf 26bc
00000070: 5d6b 8bbb 6471 053b ddb1 4ebd 44ef 87bc
00000080: a363 06bd f1cb 49bd bc69 62bd 4ce4 ee3c
00000090: 6e9b 65bd fdbb 013d 079b 20bd 8451 663d
000000a0: bca4 393c 090f 48bd 37de 2e3d 9b27 0b3d
000000b0: ae8f 48bd 536d 21bd 3664 02bd eb36 8abc
000000c0: d846 5dbd 28ce fdba f215 523d 9364 133d
000000d0: e09b 23bd 850e a4bb 9f26 b93c d361 b93c
000000e0: e609 c23c 69b4 c8bc ec89 3f3d 4725 163d
000000f0: 3641 0c3d afed 8e3c 6924 15bd 11f7 b13b
00000100: f365 c3bc 2ead adbc 595d f2bc 651d d33c
00000110: c27d 563c 349d 15bc d6b6 063c c299 503d
00000120: 7b3a 903c afe0 d83c 1f65 67bc 3f24 81bb
00000130: 838e 6cbd 2ea0 33bd e06d 47bb 14b9 513d
00000140: 2438 d8bc dce9 d6bc 30bc 10bc 9660 4dbd
00000150: dd3e 8d3c 7eb6 083d 7670 7bbb cbc7 69bd
00000160: aeae 05bd 6a72 2cbd 7b3b 16bd 9b37 52bd
00000170: 26c4 f4ba e7d9 53bd 7cd9 10bd 0427 623c
00000180: 8148 a53c 82e3 5fbd 88c3 6cbd c56b 133d
00000190: b3bd 1b3d 0b63 9a3c fdf2 5f3d bb29 6bbd
000001a0: d827 4ebc 94e7 5e3d 622d 883c 2ecf 5d3d
000001b0: 2167 5fbd ed56 823c 601a 383c 4478 4d3d
000001c0: a68e 593d 09d9 6c3d d652 a03c 9fab 213d
000001d0: c922 f53b 82eb 423d 8a83 49bd 1a0e 523d
000001e0: 1d83 c5bb d943 6aba b556 dabc 76b6 0bbb
000001f0: e77c b23c 937c 5dbd d784 46bd 3a04 983c
00000200: 41b6 56bc bbec 86bc 5c2a 1f3d c5ce 19bc
00000210: 8c08 10bd 8c36 53bd 05fb 6a3c 8b84 4f3d
00000220: 0c37 f13b e373 9e3b cddf 273c c299 da3c
00000230: e0e7 af3c f863 1aba ce0e 12bc 36af bebc
00000240: 9704 a33c 5d00 103d 0384 1e3d 5621 e53c
00000250: bab4 0ebd 069d a03b a495 e5bc d902 80bc
00000260: 9d6f febc b109 09bd 8e58 af3a d49a 163d
00000270: 9acc a2bc 8b57 543a 6319 83bc b3be bc3c
00000280: b750 20bd 5b45 d1bb f334 23bd cace 43bd
00000290: db3e 713d b80d e03c ff37 f43c c6bb aabc
000002a0: 8b0d 683d 6aea b9bb 7d84 4ebd 736a 01bd
000002b0: 7fa4 0a3d c69b 0c3d 0923 033d 389b 54bc
000002c0: 269a 12bc 12dd c8bb 7858 663d a53e ef3b
000002d0: adf5 ae3c e326 44bd 1555 713d 8c89 573c
000002e0: d667 13bd 16c5 7038 c2c6 203d 3767 31bd
000002f0: 3ae8 443a b105 7dbc dc47 c33c cf8c 5b3d
00000300: b7f6 433d ab66 e7bc 16ac 44bd 61fc 4a3d
00000310: 2211 663d 61f1 7dbc 02e0 edbc 8e37 7438
00000320: 6cbc f63c ca21 1a3d 2f43 aa3b 1cd3 163d
00000330: 5df1 103d c527 cf3c 50c9 4dbc 4f1a dd3b
00000340: ee58 e1bc 9027 c63c 37e6 4d3c 9c95 eb37
00000350: 53a7 42bd 75f4 44bd 6f7b 1cbd 2b2b 503d
00000360: 3579 27bd 9a45 ffbc fa1a c53c a063 3a3d
00000370: 9095 6e3d ddb8 30bd eb25 04bd 3d13 0f3d
00000380: 708e 19bd fecd acbc 3a25 bbbb 05d6 46bd
00000390: 88d5 543d ec68 153d ffd6 ebbc ca8d a73c
000003a0: af2b 14bc 5ff3 01bb e110 c9bc 5ecd 1fbd
000003b0: f8ca 5fbd c6aa 81bb e147 4f3d 1f28 71bd
000003c0: 1c32 07bd a42c c5bb c426 bf3c dcb6 bb3c
000003d0: 704f 15bc 50fd b0bb 4333 6bbb 3c81 093d
000003e0: e4e0 443c 822a 58bd dab1 2d3d 1fce 423c
000003f0: 96cd 03bd ea7f 5c3d 72d8 40bd 3d17 e8bc
-0.05861853 0.0044536996 -0.023338392 -0.058071736 -0.013780569 -0.020861257 0.02999556 -0.015753169
-0.009446763 0.042957783 -0.019705376 -0.023155876 0.009126668 0.0011736281 0.02793177 -0.00869958
0.007808111 -0.0078089926 -0.03978976 -0.02767211 0.009237149 0.006392848 0.047969576 0.023739452
0.0020906383 0.024008665 0.040557835 -0.010173782 -0.004254742 0.0020361776 -0.050462592 -0.016593583
-0.032809865 -0.04926676 -0.055276617 0.029161595 -0.056056432 0.03167342 -0.039210346 0.056230083
0.01133078 -0.048842464 0.04269239 0.033973318 -0.04896515 -0.0394109 -0.03183385 -0.01687189
-0.05402264 -0.0019363808 0.05129046 0.035984587 -0.039943576 -0.0050066137 0.022601424 0.022629654
0.02368636 -0.024500089 0.046762392 0.036656644 0.034241877 0.01744732 -0.036411677 0.005431064
-0.023852324 -0.021200743 -0.029585527 0.025770852 0.013091506 -0.009131718 0.008222302 0.050927885
0.01760601 0.026474325 -0.01412323 -0.0039410884 -0.057753097 -0.04385393 -0.003043048 0.051201895
-0.026393957 -0.02623456 -0.00883393 -0.05014094 0.01724189 0.033377163 -0.0038366592 -0.057075303
-0.03263729 -0.0421013 -0.03667782 -0.05132256 -0.001867418 -0.05172148 -0.03536366 0.013803247
0.020176174 -0.054660328 -0.05780366 0.03599145 0.03802271 0.018846055 0.05467509 -0.057412844
-0.012582742 0.05442007 0.016623203 0.05415266 -0.05454171 0.01591059 0.011236757 0.050163522
0.053114556 0.05782417 0.01957075 0.03947031 0.0074809534 0.04758788 -0.04919771 0.05128298
-0.006027593 -0.00089365017 -0.026652673 -0.0021318472 0.021788074 -0.05407388 -0.04846653 0.018556703
-0.013104976 -0.016470304 0.038858756 -0.009387677 -0.0351644 -0.05156569 0.014342074 0.050663512
0.0073612984 0.004835592 0.010246229 0.026684646 0.021472871 -0.00058895303 -0.0089146625 -0.023276906
0.01989965 0.035156596 0.038700115 0.027969997 -0.034840323 0.004901531 -0.028025456 -0.015626358
-0.03105908 -0.033456508 0.0013377832 0.03676875 -0.019872952 0.0008100203 -0.016003316 0.023040151
-0.039139476 -0.0063864416 -0.03984542 -0.04780463 0.058897834 0.027350292 0.029811857 -0.02084149
0.05665354 -0.0056736963 -0.05041932 -0.03159566 0.033848282 0.034328245 0.032015834 -0.01297646
-0.008947885 -0.0061298693 0.056236714 0.007301169 0.021357382 -0.047888648 0.05891903 0.013155352
-0.035987698 5.740401e-05 0.03925205 -0.043311324 0.0007511411 -0.0154432515 0.023837976 0.053601082
0.047842707 -0.028247198 -0.048015676 0.049557094 0.056168683 -0.015499444 -0.02903748 5.8225873e-05
0.030119143 0.03762988 0.005195997 0.036822423 0.035386432 0.025287518 -0.012560204 0.006747521
-0.027508225 0.024188787 0.0125670945 2.808385e-05 -0.047522854 -0.048084695 -0.038203653 0.05082242
-0.040887076 -0.031161118 0.024060715 0.045505166 0.058248103 -0.04314505 -0.032262724 0.034930456
-0.037489355 -0.021094318 -0.005711225 -0.04854395 0.05196145 0.036477014 -0.028789042 0.020453352
-0.009043618 -0.0019828898 -0.024544181 -0.039014213 -0.054636925 -0.0039571254 0.05060566 -0.058876153
-0.033006772 -0.0060172845 0.023333915 0.022914343 -0.009113178 -0.005401291 -0.0035888709 0.033570513
0.012016509 -0.052774914 0.04240594 0.011889963 -0.032178484 0.053832926 -0.04708142 -0.028331393

shared_feature_extraction.conv3.bias f4 [128]
00000000: 0000 0000 0000 0000 0000 0000 0000 0000
00000010: 0000 0000 0000 0000 0000 0000 0000 0000
00000020: 0000 0000 0000 0000 0000 0000 0000 0000
00000030: 0000 0000 0000 0000 0000 0000 0000 0000
00000040: 0000 0000 0000 0000 0000 0000 0000 0000
00000050: 0000 0000 0000 0000 0000 0000 0000 0000
00000060: 0000 0000 0000 0000 0000 0000 0000 0000
00000070: 0000 0000 0000 0000 0000 0000 0000 0000
00000080: 0000 0000 0000 0000 0000 0000 0000 0000
00000090: 0000 0000 0000 0000 0000 0000 0000 0000
000000a0: 0000 0000 0000 0000 0000 0000 0000 0000
000000b0: 0000 0000 0000 0000 0000 0000 0000 0000
000000c0: 0000 0000 0000 0000 0000 0000 0000 0000
000000d0: 0000 0000 0000 0000 0000 0000 0000 0000
000000e0: 0000 0000 0000 0000 0000 0000 0000 0000
000000f0: 0000 0000 0000 0000 0000 0000 0000 0000
00000100: 0000 0000 0000 0000 0000 0000 0000 0000
00000110: 0000 0000 0000 0000 0000 0000 0000 0000
00000120: 0000 0000 0000 0000 0000 0000 0000 0000
00000130: 0000 0000 0000 0000 0000 0000 0000 0000
00000140: 0000 0000 0000 0000 0000 0000 0000 0000
00000150: 0000 0000 0000 0000 0000 0000 0000 0000
00000160: 0000 0000 0000 0000 0000 0000 0000 0000
00000170: 0000 0000 0000 0000 0000 0000 0000 0000
00000180: 0000 0000 0000 0000 0000 0000 0000 0000
00000190: 0000 0000 0000 0000 0000 0000 0000 0000
000001a0: 0000 0000 0000 0000 0000 0000 0000 0000
000001b0: 0000 0000 0000 0000 0000 0000 0000 0000
000001c0: 0000 0000 0000 0000 0000 0000 0000 0000
000001d0: 0000 0000 0000 0000 0000 0000 0000 0000
000001e0: 0000 0000 0000 0000 0000 0000 0000 0000
000001f0: 0000 0000 0000 0000 0000 0000 0000 0000
0.0 0.0 0.0 0.0 0.0 0.0 0.0 0.0
0.0 0.0 0.0 0.0 0.0 0.0 0.0 0.0
0.0 0.0 0.0 0.0 0.0 0.0 0.0 0.0
0.0 0.0 0.0 0.0 0.0 0.0 0.0 0.0
0.0 0.0 0.0 0.0 0.0 0.0 0.0 0.0
0.0 0.0 0.0 0.0 0.0 0.0 0.0 0.0
0.0 0.0 0.0 0.0 0.0 0.0 0.0 0.0
0.0 0.0 0.0 0.0 0.0 0.0 0.0 0.0
0.0 0.0 0.0 0.0 0.0 0.0 0.0 0.0
0.0 0.0 0.0 0.0 0.0 0.0 0.0 0.0
0.0 0.0 0.0 0.0 0.0 0.0 0.0 0.0
0.0 0.0 0.0 0.0 0.0 0.0 0.0 0.0
0.0 0.0 0.0 0.0 0.0 0.0 0.0 0.0
0.0 0.0 0.0 0.0 0.0 0.0 0.0 0.0
0.0 0.0 0.0 0.0 0.0 0.0 0.0 0.0
0.0 0.0 0.0 0.0 0.0 0.0 0.0 0.0

policy_head.reduction_layer.weight f4 [2, 128, 1, 1]
00000000: 5be4 973d 9299 793c fb26 57be 8e12 cdbd
00000010: 8a61 463e 8596 a6bc b995 57be 96c9 5f3d
00000020: 4cd4 a7bd ef98 70bd 1df6 7b3d b99b dfbd
00000030: e842 c43a c742 52bd ffee 3a3d 5f89 693d
00000040: 514b 3a3e 0564 50be c86c 68bd cc8e cebd
00000050: b97d 6dbb 86d6 26be 01f0 a8bb bc3a 3c3e
00000060: 8578 523e cf94 683d 2faa 753d a8d3 3a3d
00000070: 6873 17be 8be0 2ebe 1b12 d43d 64e9 eb3d
00000080: 24ff 163d e5e2 223e e5c1 3a3e aa2e dfbc
00000090: 27bc 31be 8f18 c4bd 4e67 4abe a40f 463e
000000a0: 8e91 90bd 3ce7 0ebd 6925 44be 05b0 593e
000000b0: a73e 0b3d 0153 3cbd e52b 4fbe ebf4 39be
000000c0: 4fe0 6e3c b435 85bd 22dd 383e 6023 753d
000000d0: c87a 4dbd 8527 bfbd 21a8 c7bc e383 b4bd
000000e0: f340 f8bc 08a4 eabd 4e1c 713d 5bea 8bbd
000000f0: e3f1 f6bc 4878 0abe 5c1b fabd 6c28 26be
00000100: 75da 37be c4b5 52bc 71a9 263e 33e5 bdbd
00000110: 82e3 4fbe 9bfc 34be 07b5 e5bb 4bae f9bd
00000120: 2f47 2cbe c6dd 433d a559 2fbe 251f 893d
00000130: ebe2 08be 84e6 4d3e a30b 1c3d 20a8 d33d
00000140: ff93 523e 605a 23bd d761 493e fd35 143e
00000150: 439d 0c3d 340d 1d3e 6865 f33d 64be 91bd
00000160: c156 52be 59ea 01bd 9151 403e fd6f 513e
00000170: 960e 2c3e 22d1 ad3d 076b 223e 0d9f 8839
00000180: 5d3f 32bd 2415 d43d 9f7f 9cbb 2048 3b3e
00000190: 9746 a03b b653 9bbd 9822 1bbe 37bd 34be
000001a0: ef3c 58bd 8181 1bbe 29f5 193e 78d4 90bd
000001b0: a71b c73d 11fd f9bc bcf7 263d 86ba a73d
000001c0: 9d85 f5bd d9bc 3c3e dfdd 2cbe 869b 17be
000001d0: 4c63 53be 1a6e 24be 7bd3 12be 471c 94bd
000001e0: a99d aebd 24c7 223e c7af 1fbe b88d 3e3e
000001f0: 0207 70bd 22f0 56be 74fd 51bd 2517 233c
00000200: 967f 58be 0fe8 7bbd a2f0 1a3e dcc5 903d
00000210: e717 5b3e 672f 48be 00aa bd3d fb07 043e
00000220: e032 4e3e fb91 313d cb59 7a3d 25b6 73bd
00000230: 89b9 0b3d 2d0e 163d f58e 57be e36c 28be
00000240: f261 323e 0b93 383e 52f8 973c b193 eebd
00000250: 9610 453e cf68 47be 23aa 0bbd a461 58be
00000260: 46cc e13d 491f f63d 629a 4dbe dbf2 01be
00000270: cff7 f53d 715e 2e3d 78ae 76bd dc6c 8ebd
00000280: 8f5a f338 b451 2a3d e3fd 043e 4631 10bd
00000290: 3fc1 cb3d a87d 053e 77e9 26be fbdb f33d
000002a0: 8cda 473e a18f b3bd d7da 5a3d 0551 a43b
000002b0: 4db8 8c3d ce5a 89bd 9bb4 c2bb 353e 50bc
000002c0: 7ea6 c93d 8e29 aabb 7fa5 e13c e0cc 4f3e
000002d0: 4bf4 3a3e 801e 14bd 766d ddbd 899a de3d
000002e0: e5f4 adbd ceab 403e 8e2a cabd 72f9 0a3b
000002f0: 3622 b0bc e619 42be edd1 563e 532a e43c
00000300: 93e7 0c3e 05af 973d 11b7 ab3d 11e4 0ebd
00000310: e03a b63a e0e3 45bd 13af 76bd 0aff 133e
00000320: 6f8d b33d f1fa 2bbe e019 383d 09e7 033e
00000330: 1fe6 ed3d d57e 47be fe49 363d f73d 47be
00000340: dd24 403e 3c35 c3bd 3b9d 103e e1f7 bebd
00000350: 220d 993c 422d 963d 8894 853d 65a5 08be
00000360: 963b a3bd 1431 c53d a7b7 d6bc 72bf 2bbe
00000370: de1e 4bbe 75c8 80bd 00e8 a0bd c0df 2a3e
00000380: 25cd 9a3d 9c45 f83d 8356 b4bd 1098 aabd
00000390: d805 463d abeb 1cbd fc0a 4b3d bc3b 37bd
000003a0: 8813 9c3d 74fe 183e 4c8c 9dbc 648b f33d
000003b0: f73c 3a3e 2f0b 0b3e 5176 293e 838d df3d
000003c0: c8fa 0f3e f76d 623d a013 523e 3572 89bd
000003d0: 5a1b 113e 2467 223d 2ba4 4dbe 4dd9 093e
000003e0: 0927 6b3d ce9e bcbd f400 513c 4586 6fbb
000003f0: 1a11 40be 4d4c 963d 95f6 d43d c0d7 233e
0.07416602 0.015234368 -0.21010964 -0.10013305 0.19373146 -0.020335445 -0.21053208 0.054635607
-0.08194789 -0.0587396 0.06151401 -0.109183736 0.0014973553 -0.051333215 0.04563808 0.057015773
0.18192793 -0.20350654 -0.056744367 -0.1008583 -0.0036238267 -0.16292772 -0.005155564 0.1838178
0.20553787 0.05678254 0.059976753 0.045612007 -0.14790118 -0.17077844 0.10355016 0.11519125
0.036864415 0.15906866 0.18238027 -0.02724393 -0.1735693 -0.09574997 -0.1976597 0.19341904
-0.07059012 -0.03488849 -0.19154896 0.21258552 0.033995297 -0.045977596 -0.20231588 -0.18159835
0.0145798465 -0.06504384 0.18053105 0.05984819 -0.05016592 -0.093337096 -0.024372162 -0.08814218
-0.030304408 -0.11457068 0.058864884 -0.06831809 -0.030144637 -0.13522446 -0.1221225 -0.16226357
-0.17954428 -0.012860719 0.16275574 -0.09272232 -0.20301631 -0.17674486 -0.0070101055 -0.12191447
-0.1682403 0.04781892 -0.1712404 0.066953935 -0.13367812 0.20107466 0.038097035 0.10334802
0.20564269 -0.03988111 0.19666229 0.1447372 0.034329664 0.15337068 0.11884576 -0.07116392
-0.20540906 -0.031717632 0.18781115 0.20452876 0.16802439 0.084871545 0.1586114 0.00026058443
-0.04351746 0.10355595 -0.004775956 0.18289232 0.0048912275 -0.07584326 -0.15149915 -0.17650305
-0.052792486 -0.1518612 0.15034927 -0.07071775 0.09722071 -0.03051618 0.0407636 0.081898734
-0.11988375 0.18431415 -0.16881512 -0.14805421 -0.20643348 -0.16057625 -0.14338486 -0.07231956
-0.08526165 0.15896279 -0.15594397 0.18608749 -0.058600433 -0.20990041 -0.051267102 0.009954249
-0.2114242 -0.061500605 0.15130857 0.07068989 0.21395837 -0.19549333 0.092609406 0.1289367
0.20136595 0.04335211 0.06112079 -0.05949988 0.034112487 0.036634613 -0.21050628 -0.16447787
0.17420176 0.18024842 0.018551026 -0.11649264 0.19244608 -0.19473575 -0.034097802 -0.21130997
0.1102529 0.12017686 -0.20078424 -0.12690298 0.12010156 0.042570535 -0.06022498 -0.06954357
0.00011604011 0.041581824 0.12987475 -0.03520324 0.09948968 0.13036215 -0.16299997 0.11907192
0.19516963 -0.087676294 0.05343136 0.005014541 0.0687109 -0.06706773 -0.00594194 -0.012710144
0.09846209 -0.005192942 0.027544735 0.20292997 0.18257253 -0.0361619 -0.10811894 0.10869319
-0.084939755 0.18815538 -0.09871398 0.002120581 -0.021500688 -0.18955192 0.20978518 0.027852213
0.13760214 0.07406429 0.083845265 -0.03488547 0.0013903044 -0.04831302 -0.060225558 0.14452758
0.08767211 -0.16794945 0.04494655 0.12881102 0.11616158 -0.19481976 0.04450416 -0.19457231
0.18764062 -0.09531638 0.14122479 -0.09324623 0.01868302 0.07332851 0.06522471 -0.13344343
-0.079703495 0.096285015 -0.02621062 -0.1677225 -0.19835994 -0.06288234 -0.078567505 0.16686916
0.075586595 0.12122652 -0.08805563 -0.08329785 0.048345417 -0.038310688 0.049571022 -0.0447347
0.07620913 0.14940816 -0.019231938 0.11891821 0.18187319 0.13578485 0.1654904 0.10915663
0.14060509 0.055280652 0.20515299 -0.067112364 0.1417059 0.039649144 -0.20082156 0.134618
0.057410274 -0.09209977 0.012756575 -0.0036548537 -0.18756524 0.07338772 0.10398594 0.16000271

policy_head.reduction_layer.bias f4 [2]
00000000: 0000 0000 0000 0000
0.0 0.0

policy_head.dense_layer.weight f4 [7, 84]
00000000: 9ff5 44bc d68a 5f3d 4da0 633c 6bae 76be
00000010: ef4f f93d 0301 5e3e fc60 183e 127f e73c
00000020: 95a7 523e c0eb 583e 46c9 e6bd 11c7 81be
00000030: eb28 10bd 9fae 03bb 0145 553e 1f22 a8bd
00000040: b211 25be 8279 7c3e 1101 03be c74c 523d
00000050: 42a2 b03d f076 85bd fd97 573e edaf 77be
00000060: 222c e4bd d156 12be c9a9 6abe e4fb 483e
00000070: f852 213d c2ec 813e 7158 ffbb 6520 62be
00000080: f01f 3f3e 7c67 173e ecfa 0b3e 678a efbd
00000090: 407d 283d 8c09 c4bd 8652 813e c1e2 35bd
000000a0: edcf 84bd 3001 34bd 0338 da3d e192 3f3e
000000b0: 9976 95bd 8fc7 50be 2e77 07bc aea3 803e
000000c0: 7763 80be efd9 203d c834 963d 5472 f8bd
000000d0: 2770 173e 3da0 db3d 89aa b73d 0849 66bd
000000e0: f7d9 f93d 99e7 713e 03dd 45be 341e 723e
000000f0: d305 163e d3dd 7dbe 1ed4 783e 5692 453e
00000100: 3b54 183d 471e 103e 039c 8bbd 8f46 2f3e
00000110: c428 41be e7c5 20bc 0ce0 43be 25c4 6bbe
00000120: 14f0 113e d107 1cbd 8e1c f53c f166 9d3c
00000130: c9d6 ebbb 9486 513d 6b57 b43c 3c48 573e
00000140: 89d1 823c ab97 383e a672 c9bd be57 0a3e
00000150: 8421 70be 7fa5 00be 93a1 073e 2dda 0a3e
00000160: c9c9 503e 7d0e 233d 553b b4bd 3f9f 493c
00000170: 0346 8dbd 1ebf 67be 1fe6 1f3c cfcb 673e
00000180: d759 14bd faa6 6e3d 25d2 7bbe b60c bcbd
00000190: aeb1 c03c 2d0d cf3d 2920 b13d 6eba 3bbd
000001a0: 93a8 4c3e 23cc 063d 09c2 1c3e 5c53 81be
000001b0: f465 83bb 797b d13d a5fe 4abb 2f0c babc
000001c0: 1ef7 b3bd e5d8 c4bc e7e5 0a3d 95e2 1c3e
000001d0: c0bc 843d bc8d 1dbe 58dc 0a3e 35a0 93bc
000001e0: b48b 00be f73e 56be f4be 983d ad17 e5bd
000001f0: bb6b 033c 1010 3cbd e111 a0bd e874 d33d
00000200: 084f ad3d 9074 0f3e 067e 5bbe ffb4 623e
00000210: 70d0 39be d9e8 d4bc 2189 30be 9abe 8d3d
00000220: 52a1 043e 1946 5c3e ffa6 ae3d 4e1b 9d3d
00000230: eef4 4d3e 49b0 c3bc 0f77 173e 7d5c 6a3d
00000240: 9d3f f13d 1f46 803e f02b 2ebd 867c 6a3e
00000250: 3fdc 0e3e 29e6 3fbe 3036 433d 083c 7ebd
00000260: f748 70be 32bf 29be 1ae9 263e a158 4c3e
00000270: e786 3bbe 49c7 003d ccac 64be 207b 81bb
00000280: c1fc 10be 03fc 9fbc 42af d8bc 8988 e63d
00000290: ab09 61be 863e 023e 43cd 523c 83d9 79be
000002a0: 2e79 803e 7682 cfbc d532 4fbe 49fe 8ebd
000002b0: b6de 7bbd 0925 b6bd a638 05be 6b85 2c3e
000002c0: 8785 20be 3be6 413e 7229 853d fd2b c43c
000002d0: cf4b 803e 6207 153e 2c4b 9dbd 1cf5 ef3a
000002e0: 0350 573e 30e4 80be 4bc0 6e3e 23a3 2f3d
000002f0: 8c61 2a3e 8140 42bd 04d2 14be 2f80 cabc
00000300: e4de 04be 3fae 353e 083c 523e c70f 3abe
00000310: 8d97 35be 357b 273e 6bc2 c53d d0a0 483e
00000320: 93d0 f3bd 7dcd 2cbe b8d6 7f3e 66c9 24be
00000330: 9720 87bd 2939 263e 8a57 a8bd 2355 68be
00000340: d71c c3bd 8c18 eebd f2eb 29be b251 673e
00000350: 54b4 a4bd 0224 a63d 3381 b3bd 0bac 263e
00000360: c2ef 883d 613f f9bd 2012 8abc 5e33 5e3d
00000370: 1973 113e 4685 36be 620e 32bd d425 62bd
00000380: fb4b 02be ef63 0d3e 50fd 763e 5082 c93d
00000390: 7b9c 9d3c b5c7 253e 74f2 71be ea32 40bd
000003a0: 749c 2b3e 3101 5d3e a98e 353e 52d4 7cbd
000003b0: 9ac2 513d dbdd 2c3c f36a 14bd bc24 51be
000003c0: eac1 313e 34f3 31be baff 813e d89e 003d
000003d0: f760 61be 9be8 7fbe 83d1 7b3e f374 a73d
000003e0: b628 003e a1da bbbd d510 9e3d 8b7e 01be
000003f0: db03 273d a431 4abe 8df7 e6bd 6dac 213e
-0.012021451 0.054575764 0.013893199 -0.24089973 0.12173449 0.21680073 0.14880747 0.028258834
0.2057174 0.21183681 -0.112688586 -0.25347188 -0.035195272 -0.0020093096 0.20827104 -0.08209633
-0.16120031 0.24655727 -0.12793376 0.05134275 0.08624698 -0.06516826 0.21054073 -0.24188204
-0.1114123 -0.1429093 -0.2291633 0.19627339 0.039385766 0.25375944 -0.0077925255 -0.2208267
0.18664527 0.1478557 0.13669938 -0.1169632 0.041135073 -0.095721334 0.25258273 -0.044405703
-0.06484971 -0.043946445 0.10655215 0.18708374 -0.07298011 -0.20388626 -0.008268161 0.25124878
-0.25075886 0.039270338 0.07334286 -0.12131181 0.14788876 0.107239224 0.08968074 -0.05622199
0.121997766 0.23623504 -0.1932259 0.23644334 0.1465066 -0.2479165 0.24299666 0.19294104
0.037189703 0.1407405 -0.06816866 0.1711676 -0.18863207 -0.009812809 -0.19128436 -0.23024042
0.14251739 -0.03809339 0.029920842 0.019214125 -0.0071972352 0.051153734 0.02201434 0.21023649
0.015969055 0.18026607 -0.098363206 0.13510033 -0.23450285 -0.12563132 0.1324523 0.1355979
0.20389475 0.03980874 -0.08800379 0.012306034 -0.06898119 -0.22631499 0.009759455 0.2263634
-0.03621849 0.05826471 -0.24591883 -0.09182112 0.023522224 0.10109935 0.08648712 -0.04583209
0.19986181 0.032909524 0.15308394 -0.2525891 -0.0040099565 0.10228629 -0.0030974534 -0.022710888
-0.08787368 -0.024029205 0.03391066 0.15320809 0.06481314 -0.15386099 0.13560617 -0.018020729
-0.12553293 -0.20922457 0.074582964 -0.111861564 0.00802129 -0.045913756 -0.0781591 0.103250325
0.0846234 0.14009309 -0.21434793 0.22139357 -0.18145919 -0.025989937 -0.1723981 0.0692112
0.12952164 0.21511115 0.08527946 0.076712236 0.20112965 -0.02388777 0.14791511 0.05721711
0.117797114 0.25053498 -0.04252237 0.22899064 0.13951205 -0.18740143 0.0476591 -0.06206897
-0.23465334 -0.16576841 0.16299859 0.19955684 -0.1831318 0.031440053 -0.22331542 -0.003951445
-0.14158918 -0.019529348 -0.026450757 0.11256511 -0.21976344 0.12719163 0.012866321 -0.2439938
0.25092453 -0.025330763 -0.20234235 -0.06982095 -0.06149169 -0.08893783 -0.13009891 0.1684777
-0.15675937 0.18935482 0.06502046 0.023946756 0.25057837 0.14553598 -0.076803535 0.0018307301
0.21026616 -0.25174093 0.23315541 0.04288019 0.16638774 -0.047424797 -0.1453324 -0.024719326
-0.12975651 0.17742251 0.20530713 -0.18170081 -0.17733593 0.16355594 0.09656223 0.19592595
-0.11905017 -0.16875263 0.24984252 -0.16092452 -0.06598013 0.16232742 -0.08219822 -0.22688727
-0.09526985 -0.11625776 -0.16593912 0.22589758 -0.08042207 0.08112337 -0.08764877 0.16276567
0.06686355 -0.12170292 -0.016854346 0.054248206 0.14204063 -0.17824277 -0.043470748 -0.055211857
-0.12724297 0.13807653 0.24120069 0.09839308 0.019239655 0.16189463 -0.23627645 -0.046923555
0.16758901 0.21582486 0.17730202 -0.061725922 0.051210977 0.010550941 -0.036234807 -0.2042417
0.17359129 -0.17377931 0.25390416 0.031401485 -0.22009645 -0.24991076 0.24591641 0.08176603
0.1251553 -0.091725595 0.07718054 -0.12645929 0.04077516 -0.19745499 -0.11277685 0.15788431

policy_head.dense_layer.bias f4 [7]
00000000: 0000 0000 0000 0000 0000 0000 0000 0000
00000010: 0000 0000 0000 0000 0000 0000
0.0 0.0 0.0 0.0 0.0 0.0 0.0

value_head.reduction_layer.weight f4 [1, 128, 1, 1]
00000000: 00e3 25be 43a6 903d 9edf 403e 5080 25be
00000010: 96d2 453b d64a 58ba 455a 3a3d 1368 e5bd
00000020: 8863 f83d 860d 2b3e a5ec df3d 62a2 603d
00000030: 6905 54bc e48c 5c3e 970d 12be 18ea 093d
00000040: a5e7 34be f3c1 f63b 3802 77bc a827 073a
00000050: d14e 993c ccb4 e2bd f1d3 3e3e 1832 0a3e
00000060: 12f4 503e f660 353e de55 1fbe be50 f1bd
00000070: 497a 3a3e 3096 d2bc ea43 d13d 8d2e 9b3d
00000080: d59d b13d 16e4 0e3d 1cbd 483c 4a8e 403e
00000090: 3d2e 433e 2947 56be 8b16 26bd e6b5 0a3e
000000a0: a1d9 853d 31d0 a33d c23a 2cbe 918e 403e
000000b0: beee 313e 05a3 2b3e 231d 883c 4e82 0bbe
000000c0: 9106 81bd 73fa c9bd bb47 f4bd 8031 0ebd
000000d0: 25bd 133e 9896 673d 5d3b d4bd f949 b5bd
000000e0: 56ad d6bd f2c0 a93d 7c73 bb3d b14f 593e
000000f0: 0466 723d 719d 073e e3c2 03bd b7fd d63d
00000100: 31c9 2b3e ebe5 a63d 0031 3f3e 9055 a1bd
00000110: eec9 2bbe 8253 fa3d 297f f3bd 627c 4e3c
00000120: a92b 70b9 5314 39be ec0b 23be 532f c53d
00000130: f775 fc3d f371 983d 2e86 233e 62c3 cabc
00000140: d4d6 4b3e b0cc 27be 00ec 713d 22d2 073e
00000150: 0c8e 383e 5fc4 37be ba6c 1ebe 7dc4 af3d
00000160: 9d17 7e3d 6da2 473e 1ebc 273d dbc1 54be
00000170: 623f 26be c223 3bbd a149 0f3e a517 c6bd
00000180: 82c0 44be c52f e03d 13a1 873c aec2 07be
00000190: 23af 2fbd d16e 89b8 b31e d93d a609 6ebc
000001a0: a417 febb 4c4c 8e3d ff6b 413e 1cad 3ebe
000001b0: e59b bebc 5afc 4e3e 5f8d ddbd 92e6 2dbe
000001c0: bce1 553d 7b32 3cbe 17c4 f93d 1bb4 383d
000001d0: 8e6a 48be ffcc 34bd ef78 543e fe50 e63d
000001e0: 9062 ddbd e097 2e3e aae0 71bd 81c7 d0bd
000001f0: 57a3 0cbe efeb 2e3e d467 5b3e b7a9 553d
-0.16199875 0.07062962 0.18835303 -0.16162229 0.0030185333 -0.00082508975 0.045496244 -0.11201491
0.12128359 0.16704378 0.10933808 0.05484236 -0.012940743 0.2153812 -0.14262997 0.033670515
-0.1766649 0.007530445 -0.015076213 0.00051557506 0.01871434 -0.110696405 0.18635537 0.13495672
0.20405605 0.17712769 -0.155601 -0.117829785 0.1821071 -0.02570638 0.10218032 0.07577238
0.08672682 0.03488549 0.012252118 0.18804279 0.19060607 -0.20925583 -0.040548842 0.13545951
0.0653565 0.07998694 -0.1681929 0.18804385 0.17376229 0.16761406 0.016615456 -0.13623926
-0.063000806 -0.098622225 -0.11927744 -0.034715176 0.14427622 0.0565401 -0.10362885 -0.08852
-0.1048228 0.082887545 0.09152886 0.21221806 0.05917932 0.13243653 -0.03216828 0.10497611
0.16775967 0.08149322 0.18671036 -0.07877648 -0.16776249 0.12222959 -0.11889488 0.012602897
-0.00022904448 -0.1807416 -0.15922517 0.09628167 0.123271875 0.07443609 0.15969154 -0.024751369
0.19906169 -0.16386676 0.059062958 0.13263753 0.18022937 -0.17946003 -0.15471163 0.08582399
0.062034238 0.19495554 0.040950887 -0.20777075 -0.16235116 -0.0456884 0.13992931 -0.096724786
-0.19214061 0.10946611 0.016556298 -0.13257858 -0.042891633 -6.55331e-05 0.106015585 -0.014528668
-0.007754283 0.06948146 0.18888853 -0.18620723 -0.023267696 0.20213452 -0.1081798 -0.16982487
0.05221723 -0.18378632 0.12195604 0.045093637 -0.19571897 -0.044140812 0.20749258 0.11245917
-0.10809815 0.17050123 -0.059052147 -0.10194302 -0.13734184 0.17082189 0.21426326 0.052163806

value_head.dense_layer1.weight f4 [64, 42]
00000000: a893 83bc 3df6 0c3e ecb7 54bd f18a 22be
00000010: 779a 42be a469 58be 274e c8bd 858c 473e
00000020: fb04 ba3c fcae cf3d 14c1 2fbe 8ac2 d2bd
00000030: 447c d93c cb00 afbc 25a8 b8bd bcb3 07be
00000040: 31c8 673e 0c5b 0a3e 5af8 9dbd 6675 e9bd
00000050: 9354 843d 0275 5c3e a9b0 edbd a6e8 56be
00000060: b0f6 c7bd 280d 283d f69d 1fbe 98cf e6bd
00000070: 16ea cfbd 678c 4ebe e82d 14be 1e10 2fbe
00000080: 9700 f3bd 1139 503e 443f 14bc 65fd 0bbe
00000090: 7fce 423e 3b26 5dbe 4b35 4e3e c896 163d
000000a0: 5b2a 07be d433 603d 0606 07bc ec48 49be
000000b0: 87aa 67bd 0c8b 4e3d d72c 4e3e 8c87 99bd
000000c0: dfb9 653e 91d7 333e 17dd 65be 49a9 f93d
000000d0: dbc8 4d3e d6c7 6dbe 943a e03d 2c07 813c
000000e0: 12c9 05be 4450 8e3d eb63 33bd 554b 203d
000000f0: 0aa2 3abe f2ac 073e 324d 063e a69b 54be
00000100: 58c5 3a3e eefd 3a3e 8214 193e 8b0e 5ebd
00000110: cd63 00be f788 dd3d 1455 d63c 44ae 9a3d
00000120: 2943 92bd d544 123d f7ea 053e 627f 513b
00000130: ecd1 6d3e d6db 213c d31e 3dbe 6291 443e
00000140: 225b 843d ff39 50be 9d48 3e3e 48d8 7bbd
00000150: 875a 2d3e f1ba 223d 61ab 55be 5f8f 1fbe
00000160: 0057 9d3d a627 40be 281b 0cbe 411c 143e
00000170: 263e 673e ed45 22be 8be4 2dbd 2320 aa3d
00000180: 3cff 57be 38eb c6bd 5845 b8bd 5107 a8bd
00000190: dfa6 6c3e b6e9 7f3c d870 62be 4bea 29be
000001a0: 161f 3cbc 9a32 833d 47a5 1f3e 2fd2 083d
000001b0: b634 393e e05a 46be eebd 883b b987 f4bd
000001c0: 411b 2cbe 5690 853d c704 e63d 6c69 13bd
000001d0: 8e26 363e 0ee0 d43d 1688 703e 6be7 6c3d
000001e0: 07dd 15be eeb6 02be e215 3f3e f12e 643e
000001f0: ef28 0ebe 661e 58be e677 183e 4b8a 1b3e
00000200: 79c5 24be 8ef1 56be 4dfd 643d 0a6e 523d
00000210: f824 2abc b783 683d 8a3c 1fbe a9b4 85bd
00000220: ad67 e1bd f1db aabd c0b2 55be f54b 343d
00000230: 0c8a c53d 6050 8cbd ca1e 033e 2260 49be
00000240: 1899 41bd 678b 613e 8f3c 173e 3aa2 683d
00000250: dd8e 39be 0750 973d d731 8e3c b3ba d5bc
00000260: 7db2 2b3e 0f91 58be 9a78 0a3d 2279 dabd
00000270: c687 93bb c0c2 3bbe 935d 273d 161d 583e
00000280: 6690 923d 3a8c 613e 9bdc 5ebd b445 44be
00000290: 3c4e 8ebd 9ab3 fabb 574c ab3b 8a82 313d
000002a0: 4212 eebd 7373 4c3e 32fa 12be a540 513e
000002b0: d1e9 2a3e e392 483e 41eb c53d 2130 a73d
000002c0: ee2e 23be 91f8 e9bd 1fcd a93d e570 f3bd
000002d0: 2c34 babd 5674 43be 373d f4bd f780 3fbd
000002e0: 728f 48be 9be8 a73d f9c8 443e d858 273e
000002f0: af52 943d a14f 1c3e 108b 73be 2eaf 3ebe
00000300: 5656 0f3e 8ef8 2fbe bd4a 1b3e d49f 08be
00000310: 5107 533e 189b a3bd 7b3e 243e ca61 3e3e
00000320: 4d25 2e3e f9cf dabd 1329 e63c 5acd e73c
00000330: 0593 8fbd f1fa ba3d 8c12 403e c583 19be
00000340: c924 78bd 8885 37be 2811 0c3e a8bf 4ebe
00000350: 53d0 abbd d126 abbd 07c7 233e 5483 5c3e
00000360: e6af c33d 9376 2cbe 7317 44be 9783 603e
00000370: 3a23 68bd 97b0 dfbb 39f5 b83d 170a 0a3d
00000380: 5d5e 3bbe cd15 353e 985e 06be 2aad 863d
00000390: 0267 61bc 8c06 11be 8f11 313b f712 62be
000003a0: afbd 9a3d 5d41 0abe f758 3fbd 9171 6fbd
000003b0: ee51 113e 4f51 353d 11a1 5cbe 052c bebc
000003c0: cfd3 633e 9101 903d 8b56 353d 56ae 3e3e
000003d0: 4ff7 1abe 6e04 59be 0a72 36be 4df4 363e
000003e0: 5e8c d43d a449 8b3c 8996 4cbe 9717 03be
000003f0: 6c9e 2fbe 0300 e93d 7c13 d2bd 2411 30be
-0.016061619 0.13765807 -0.051933214 -0.15873314 -0.19004236 -0.21134049 -0.097805314 0.19487198
0.022707453 0.101407975 -0.17163497 -0.10291012 0.026548512 -0.021362683 -0.09016446 -0.13252157
0.2263496 0.13511294 -0.07713385 -0.11399345 0.06461444 0.2152901 -0.11605961 -0.20987186
-0.09763849 0.04102817 -0.15587601 -0.11270064 -0.1015207 -0.20170747 -0.14470637 -0.17095992
-0.11865347 0.20334269 -0.009048287 -0.13670881 0.19024085 -0.21596615 0.20137517 0.03676489
-0.13199751 0.054736927 -0.008241182 -0.19656724 -0.056559112 0.050425574 0.20134293 -0.07496557
0.22434185 0.17562701 -0.2244762 0.12190492 0.20096152 -0.23220763 0.10948673 0.01575049
-0.13064983 0.06948903 -0.04379646 0.039134342 -0.18225875 0.13249567 0.13115385 -0.207625
0.18239343 0.18260929 0.1494923 -0.054213088 -0.12538071 0.108171396 0.026163615 0.0755277
-0.07141716 0.035710175 0.13077913 0.0031966795 0.2322461 0.009879073 -0.1846879 0.19196084
0.06462695 -0.20334624 0.18582387 -0.06148556 0.16929065 0.039729062 -0.20866157 -0.15582035
0.076826096 -0.18765125 -0.13682234 0.14463903 0.22582301 -0.15846987 -0.042454284 0.08306911
-0.21093458 -0.09712833 -0.08997601 -0.082045205 0.23110531 0.015619686 -0.22113359 -0.16593282
-0.011482021 0.06406136 0.15590392 0.03340357 0.18086514 -0.19370604 0.004173032 -0.119399495
-0.16807272 0.065216705 0.1123138 -0.03598921 0.17788145 0.103942975 0.23489413 0.057837885
-0.14635096 -0.12765095 0.18660691 0.22283532 -0.13882802 -0.21105346 0.14889488 0.15189473
-0.16090955 -0.20990583 0.05590563 0.051374473 -0.010384791 0.056766238 -0.15550438 -0.06528599
-0.11006103 -0.08342732 -0.20868969 0.04401775 0.09645471 -0.06851268 0.12804714 -0.19665578
-0.047265142 0.22025834 0.14769195 0.056795336 -0.18120904 0.07388311 0.01735775 -0.026090002
0.16767307 -0.21149085 0.03380642 -0.106676355 -0.0045022694 -0.1833601 0.040860724 0.21104845
0.07156448 0.22026148 -0.054409605 -0.19167215 -0.06948516 -0.0076508047 0.0052276063 0.043337382
-0.11624576 0.19965915 -0.14353254 0.20434816 0.16690756 0.19587283 0.09664012 0.08163477
-0.15935871 -0.114243634 0.08291077 -0.11886767 -0.09091982 -0.19087347 -0.11925738 -0.04675385
-0.1958597 0.08198663 0.1921729 0.16342485 0.07242333 0.15264751 -0.23783517 -0.18621513
0.13997778 -0.1718466 0.15165229 -0.1334222 0.2060826 -0.07988566 0.1603946 0.18591991
0.17006417 -0.10684199 0.028095758 0.028296161 -0.070104636 0.091298945 0.18757075 -0.14991672
-0.060581956 -0.17922032 0.1367842 -0.20190299 -0.08389344 -0.08357013 0.15993892 0.21534473
0.09555034 -0.16842107 -0.1914957 0.21925198 -0.05667422 -0.006826471 0.090311475 0.03370103
-0.18297715 0.17684098 -0.13122022 0.06575997 -0.013757469 -0.14162654 0.0027018522 -0.22077547
0.075557105 -0.13501497 -0.046715703 -0.058457915 0.1419141 0.044266995 -0.21545817 -0.02321435
0.22248767 0.07031549 0.044271987 0.18621191 -0.15133403 -0.21193096 -0.1781694 0.17866631
0.103783354 0.017002888 -0.199793 -0.12801968 -0.17150277 0.11376955 -0.102576226 -0.17194039

value_head.dense_layer1.bias f4 [64]
00000000: 0000 0000 0000 0000 0000 0000 0000 0000
00000010: 0000 0000 0000 0000 0000 0000 0000 0000
00000020: 0000 0000 0000 0000 0000 0000 0000 0000
00000030: 0000 0000 0000 0000 0000 0000 0000 0000
00000040: 0000 0000 0000 0000 0000 0000 0000 0000
00000050: 0000 0000 0000 0000 0000 0000 0000 0000
00000060: 0000 0000 0000 0000 0000 0000 0000 0000
00000070: 0000 0000 0000 0000 0000 0000 0000 0000
00000080: 0000 0000 0000 0000 0000 0000 0000 0000
00000090: 0000 0000 0000 0000 0000 0000 0000 0000
000000a0: 0000 0000 0000 0000 0000 0000 0000 0000
000000b0: 0000 0000 0000 0000 0000 0000 0000 0000
000000c0: 0000 0000 0000 0000 0000 0000 0000 0000
000000d0: 0000 0000 0000 0000 0000 0000 0000 0000
000000e0: 0000 0000 0000 0000 0000 0000 0000 0000
000000f0: 0000 0000 0000 0000 0000 0000 0000 0000
0.0 0.0 0.0 0.0 0.0 0.0 0.0 0.0
0.0 0.0 0.0 0.0 0.0 0.0 0.0 0.0
0.0 0.0 0.0 0.0 0.0 0.0 0.0 0.0
0.0 0.0 0.0 0.0 0.0 0.0 0.0 0.0
0.0 0.0 0.0 0.0 0.0 0.0 0.0 0.0
0.0 0.0 0.0 0.0 0.0 0.0 0.0 0.0
0.0 0.0 0.0 0.0 0.0 0.0 0.0 0.0
0.0 0.0 0.0 0.0 0.0 0.0 0.0 0.0

value_head.dense_layer2.weight f4 [1, 64]
00000000: 50d8 d4bd 8d0e e9bc 5d6a 3b3d db1e cb3d
00000010: 3fd9 51be 0338 903e 1ace 7f3e 13e3 473d
00000020: 4e41 43be 1946 6b3e d1da 2d3d d51b 76bd
00000030: 3992 103e 9ecd 173d 3e72 2a3d efea 81be
00000040: e125 b4bd c6dd 323e 8115 24be fd15 09be
00000050: 2be7 4cbe 6e64 573e dd60 383e 8ea9 8ebd
00000060: a790 87bd d4fa 64bd f272 e93d 18b4 12be
00000070: a73d 99be 6799 8439 fba0 2c3e bd1f 8fbe
00000080: 335f 623e a851 82be 1dea c4b9 c3b3 7c3e
00000090: 4e74 443d 6354 51be 2ed1 a73d 9f6d 233e
000000a0: ba34 96be d516 1c3d cfde 323c d1f2 7a3c
000000b0: 3754 053d c7d1 053e d810 51be 32e2 90be
000000c0: 9a8c db3d 2a39 893e 037e 863e f9e5 d53d
000000d0: 8c2d 95bd 26f1 edbd 14db 1ebc dd6d f1bd
000000e0: 89f7 0d3e 5a9c 7ebe 0ffb 7e3e 8c0d 893e
000000f0: 60f3 8a3e 0900 293d 7f8a 36be 6ddd 17be
-0.10392821 -0.028449321 0.045755733 0.099179946 -0.20493029 0.28167734 0.24980965 0.04880054
-0.1906788 0.22975959 0.042445008 -0.060085136 0.1411828 0.037061326 0.041612856 -0.25374553
-0.08796287 0.17467412 -0.16023828 -0.13387294 -0.20010059 0.21034405 0.180057 -0.06965934
-0.06619387 -0.05590327 0.11398877 -0.14326513 -0.2992985 0.00025291296 0.16858284 -0.27953902
0.22106628 -0.25452924 -0.0003755846 0.24677949 0.04796248 -0.20442347 0.08194195 0.15959786
-0.29337102 0.03810771 0.0109173795 0.015316681 0.032551017 0.13068305 -0.20416582 -0.28297573
0.10720177 0.26801425 0.26268014 0.104442544 -0.07284078 -0.11618261 -0.009695787 -0.11788533
0.13863958 -0.24864331 0.24900459 0.26768148 0.27138805 0.0412598 -0.1782627 -0.14830561
